dht_anomaly_model.tflite (tflite, 1780 bytes, 3 tensors)

sequential/dense/BiasAdd/ReadVariableOp f4 [8]
0.0720361 -0.05065182 -0.11080923 0.12205133 -0.111336775 0.0458026 0.0 -0.14757335
00000000: aa87 933d 4878 4fbd f3ef e2bd 0cf6 f93d
00000010: 8904 e4bd 829b 3b3d 0000 0000 781d 17be

sequential/dense/MatMul f4 [8, 2]
0.47105142 -0.078672275 0.08193592 -0.07228105 -0.24547602 0.27223796 0.4039894 0.19792701
-0.06545753 0.19094823 0.7872975 -0.5810004 -0.7745681 -0.17046243 -0.26020718 0.03790505
00000000: a72d f13e ee1e a1bd 05ce a73d 1608 94bd
00000010: 115e 7bbe c662 8b3e b3d7 ce3e 61ad 4a3e
00000020: 990e 86bd ef87 433e 548c 493f 71bc 14bf
00000030: 184a 46bf b48d 2ebe e039 85be 5342 1b3d

sequential/dense_1/MatMul f4 [1, 8]
-0.5922783 -0.45310298 -0.2926492 0.5080532 -0.48474002 0.43209505 0.65673125 -0.2726647
00000000: 8d9f 17bf 1dfd e7be 1ed6 95be c60f 023f
00000010: d82f f8be 903b dd3e 8a1f 283f b59a 8bbe
