dht_anomaly_model.tflite (tflite, 1784 bytes, 3 tensors)

sequential/dense/BiasAdd/ReadVariableOp f4 [8]
-0.02049923 -0.020758405 -0.043691643 0.01989021 -0.13554579 0.0 0.01914231 0.0
00000000: 00ee a7bc 880d aabc 02f6 32bd cbf0 a23c
00000010: 84cc 0abe 0000 0000 55d0 9c3c 0000 0000

sequential/dense/MatMul f4 [8, 2]
0.015263634 0.58478385 0.6962663 -0.068055585 -0.49451157 0.0604868 0.534894 0.26030695
0.48463038 -0.21163994 -0.35018283 -0.6954541 0.6669426 0.33065125 -0.12238532 -0.65819675
00000000: 5214 7a3c 65b4 153f 823e 323f ba60 8bbd
00000010: 9f30 fdbe 02c1 773d d0ee 083f f446 853e
00000020: 7921 f83e 24b8 58be 2a4b b3be 4809 32bf
00000030: c0bc 2a3f 1f4b a93e 28a5 fabd 957f 28bf

sequential/dense_1/MatMul f4 [1, 8]
0.6133229 0.60761297 -0.25200903 -0.7717388 0.5115627 -0.5839552 -0.22925158 -0.47208422
00000000: bb02 1d3f 868c 1b3f 5407 81be ad90 45bf
00000010: c6f5 023f 177e 15bf edc0 6abe 06b5 f1be
