python/saved_model/dht_anomaly_model.tflite (tflite, 1816 bytes, 3 tensors)

sequential/dense/BiasAdd/ReadVariableOp f4 [10]
-5.8617644 -2.2854533 0.0 -0.07512719 -1.9408263 -0.049270928 0.0 0.0
0.18181343 0.0
00000000: 9393 bbc0 de44 12c0 0000 0000 49dc 99bd
00000010: ff6c f8bf 50d0 49bd 0000 0000 0000 0000
00000020: 4d2d 3a3e 0000 0000

sequential/dense/MatMul f4 [10, 2]
0.1630475 0.011983273 -0.39439952 0.51229066 -0.21351627 -0.012308538 -0.07030997 0.008378901
0.2401108 -0.02707949 -0.4404189 0.04911765 -0.32727838 -0.58411336 -0.13151401 -0.30911526
-0.7841064 0.45426288 -0.62199914 -0.16878903
00000000: edf5 263e 7d55 443c bcee c9be 7b25 033f
00000010: 02a4 5abe c0a9 49bc acfe 8fbd a847 093c
00000020: 9bdf 753e ced5 ddbc 967e e1be 972f 493d
00000030: 0891 a7be 7488 15bf 9cab 06be 5b44 9ebe
00000040: 32bb 48bf 2595 e83e 563b 1fbf 08d7 2cbe

sequential/dense_1/MatMul f4 [1, 10]
3.732717 -0.42703024 -0.3218764 -0.6536684 -0.2538525 -0.6315217 -0.042918682 -0.23072326
0.6263178 0.31082577
00000000: d6e4 6e40 b5a3 dabe fccc a4be d056 27bf
00000010: f4f8 81be 68ab 21bf 80cb 2fbd b842 6cbe
00000020: 5d56 203f 8e24 9f3e
