python/saved_model/dht_anomaly_model.tflite (tflite, 1816 bytes, 3 tensors)

sequential/dense/BiasAdd/ReadVariableOp f4 [10]
000000 c3 99 7f bd 2b 69 d5 c0 95 ad e1 bd 20 28 83 40
       -0.062402498 -6.669088 -0.11019436 4.098648
000010 81 27 4c bf b7 00 b2 bd 97 c6 ec bd fc 9e f6 3f
       -0.7974778 -0.086915426 -0.115613155 1.9267268
000020 5d 13 a7 bc e0 a4 58 bd
       -0.020394975 -0.052891612

sequential/dense/MatMul f4 [10, 2]
000000 e4 29 7d bf c0 fc e2 3e a0 60 62 3e 59 f1 20 3c
       -0.98892045 0.44333458 0.22107172 0.009823167
000010 18 01 d5 3e 03 7b cb 3d e3 bc bc bd 8d 64 b5 bc
       0.41602397 0.09935572 -0.09215715 -0.022142673
000020 5a a5 5e bd f7 82 a1 3c d9 ba d5 3e f9 15 13 bf
       -0.05435691 0.01971577 0.41744116 -0.574554
000030 f3 30 32 3e 25 51 5b be 34 5d 48 3f 0d 8c 2b bf
       0.17401485 -0.21417673 0.78267217 -0.67010576
000040 ce ff 40 3d 96 5f 13 be de 6f b0 3d e4 e7 38 be
       0.047118954 -0.14391932 0.08615087 -0.18057209

sequential/dense_1/MatMul f4 [1, 10]
000000 dc ad 8f 3f 79 c2 d9 40 84 b4 29 bf 01 6d 27 41
       1.1224933 6.8049893 -0.6629107 10.464112
000010 a2 ab ba 3b 00 5a aa bd 99 58 0b bf 4e 57 05 40
       0.0056967298 -0.083179474 -0.54432064 2.0834537
000020 13 c8 4d be 66 13 f6 be
       -0.20095854 -0.48061675
